ai_matching/team_match_advanced.pt (torch, 109269 bytes, 5 tensors)

mlp.0.weight f4 [128, 142]
0	0xbc837a74	-0.016049601
1	0x3c49b719	0.01231172
2	0xbc242212	-0.010017889
3	0x3d2aa58c	0.041661784
4	0xbd32149f	-0.043476697
5	0x3dc1a2d8	0.09454888
6	0xbd2a0525	-0.041508812
7	0x3d222195	0.039582808
8	0x3ca3cfeb	0.019996604
9	0xbc88c5d3	-0.016695892
10	0x3b85a06e	0.0040779626
11	0x3c472d21	0.012156756
12	0xbd2520c9	-0.04031447
13	0xbcb62308	-0.022233501
14	0x3d92f58b	0.0717574
15	0x3da786ef	0.081800334
16	0xbd33e184	-0.04391624
17	0xbd5307a5	-0.051520962
18	0x3de30fc8	0.110869944
19	0xbd39c363	-0.04535235
20	0xbd5a5bb1	-0.0533101
21	0x3cbe43fd	0.023225779
22	0x3db8d3cd	0.09024773
23	0xbd0d72a8	-0.034533173
24	0xbd0bf9a0	-0.034173608
25	0xbcfe296b	-0.031025609
26	0x3b8398dc	0.004016025
27	0x3c1d674d	0.009607148
28	0xbd2c68c7	-0.04209211
29	0xbd23c7df	-0.039985534
30	0xbc556d4c	-0.013026547
31	0x3db6b2f6	0.08920853
32	0x3c5b6226	0.0133901
33	0x3d1436df	0.03618514
34	0x3d02357a	0.03178928
35	0x3d82c16b	0.06384548
36	0x3dd30765	0.10304145
37	0xbcfd2043	-0.030899173
38	0x3d1b58ed	0.037926603
39	0x3d9f27b2	0.07771243
40	0xbd801e23	-0.06255748
41	0xbd7b19b6	-0.061303817
42	0x3bfca06d	0.007709554
43	0xbd0f8e72	-0.035047956
44	0x3d987f5a	0.074461654
45	0x3d576781	0.052588943
46	0x3c094c82	0.008380057
47	0xbcb67c44	-0.022276051
48	0xbd9b804c	-0.0759283
49	0xbce6459b	-0.028109362
50	0x3d501b83	0.050807487
51	0x3c96cb39	0.018407451
52	0x3c3bb965	0.011457776
53	0xbd1a65df	-0.037694808
54	0x3dbe9274	0.093052775
55	0xbd226c66	-0.039654158
56	0x3dbd3ee6	0.092405125
57	0xbd8b6283	-0.06805899
58	0x3cf2c76a	0.029636104
59	0xbc12badf	-0.008955686
60	0xbd0dec63	-0.034649264
61	0xbc46316b	-0.012096743
62	0xbd7d5c8d	-0.06185584
63	0x3c0c30b6	0.0085565355
64	0xbc0d7952	-0.008634882
65	0x3c8b1ceb	0.016981563
66	0x3ca1ca97	0.019749923
67	0x3dc1c2d7	0.09460991
68	0x3d83dbcd	0.06438408
69	0x3c0613a7	0.008183396
70	0x3d984e82	0.07436849
71	0x3d803882	0.06260778
72	0x3db63c59	0.08898229
73	0x3d661c00	0.056179047
74	0xbd698322	-0.057009824
75	0x3dc0ea9e	0.0941975
76	0x3dc93aeb	0.09825691
77	0xbc2e3e30	-0.010634944
78	0x3db8da3b	0.09025999
79	0x3dd0e38a	0.1019965
80	0xbce25358	-0.027627632
81	0x3c0b4e70	0.008502588
82	0x3bf1fa7c	0.0073845964
83	0xbd27821b	-0.040895563
84	0xbd20ea35	-0.039285857
85	0x3c236cc5	0.009974663
86	0xbb980c60	-0.004640147
87	0xbbc59d55	-0.0060307183
88	0x3d7f204c	0.06228666
89	0x3d337894	0.043816164
90	0x3bb28e79	0.005449113
91	0xbbe5e0e3	-0.007015334
92	0x3bfd3f59	0.007728499
93	0x3b801191	0.003908344
94	0xbbb08c18	-0.005387794
95	0x3ca04291	0.019562991
96	0x3d2e385e	0.042534225
97	0x3b7a6dee	0.0038212496
98	0x3d2d5b18	0.042323202
99	0xbc75af4f	-0.01499541
100	0xbd2141c4	-0.03936936
101	0xbd3bbf0f	-0.045836505
102	0xbd75b0ca	-0.059983052
103	0xbbb15263	-0.0054114326
104	0xbd18a8d6	-0.03727039
105	0xbd8b5df9	-0.06805033
106	0x3cb82c08	0.022481933
107	0x3de5b07c	0.11215302
108	0x3d01cbea	0.03168861
109	0xbca4c3b8	-0.020112857
110	0xbd4adbb5	-0.049525935
111	0x3d827084	0.06369117
112	0xbd0264ba	-0.03183434
113	0xba10cdaa	-0.00055238104
114	0xbd538527	-0.051640656
115	0xbd833899	-0.064072795
116	0x3dacd840	0.08439684
117	0xbcdbcc76	-0.026830893
118	0x3cb4fc79	0.022093045
119	0x3b4e27c9	0.003145682
120	0x3dddb43c	0.108253926
121	0xbc3b9692	-0.011449473
122	0x3d7b1197	0.06129607
123	0xbc6e9795	-0.014562507
124	0xbd228463	-0.039677035
125	0x3da1fd4b	0.0790964
126	0x3d94ea27	0.072712235
127	0x3d2a6889	0.0416036
128	0xbd57425b	-0.052553516
129	0x3d9ec251	0.07751907
130	0xbc50361d	-0.012708214
131	0x3d954ffd	0.07290647
132	0x3d101012	0.035171576
133	0xbcea0a9c	-0.028569512
134	0x3de79cae	0.11309181
135	0x3d956610	0.072948575
136	0x3d12cac0	0.03583789
137	0xbd773805	-0.06035616
138	0xbd873c68	-0.066033185
139	0x3d759ed7	0.059965935
140	0x3d38a171	0.045075838
141	0x3d93d7f4	0.07218924
142	0x3cc0784a	0.023494858
143	0xbcc72f6d	-0.024314607
144	0xbcd525b4	-0.026018955
145	0xbda314c3	-0.07962944
146	0xbcc065f8	-0.023486122
147	0xbd3e1241	-0.046404127
148	0x3c70e99a	0.014704132
149	0x3d8cf0fc	0.068819016
150	0xbd5e665b	-0.054296833
151	0xbd226e1d	-0.039655793
152	0xbda7af1b	-0.081876956
153	0x3d221f82	0.03958083
154	0x3dbbbe60	0.091671705
155	0xbb49508c	-0.0030718176
156	0x3c1d5d6f	0.009604796
157	0xbc2f4757	-0.010698161
158	0x3d1d25a1	0.038365964
159	0xbd7a086c	-0.061043188
160	0x3d4f8600	0.0506649
161	0x3d8861e0	0.06659293
162	0xbd47f629	-0.04881874
163	0xbd0099da	-0.031396724
164	0xbd8d8a32	-0.06911124
165	0x3d0828af	0.033241924
166	0x3d30a5e3	0.043126952
167	0xbd9b311a	-0.07577725
168	0xbb289539	-0.002572371
169	0x3da73fdf	0.08166479
170	0x3ba0ee63	0.0049112304
171	0x3a8a6a2f	0.001056021
172	0x3d4d5999	0.050134275
173	0xbd0471d1	-0.032335106
174	0x3d81e27a	0.06342025
175	0x3d4d7a47	0.05016544
176	0x3d39f2b3	0.04539747
177	0xbc304995	-0.010759731
178	0x3d6b4933	0.057442855
179	0xbca89a66	-0.020581435
180	0xbd2a5a07	-0.041589763
181	0xbcf1cbb2	-0.029516075
182	0x3d20b461	0.039234523
183	0xbcb24454	-0.021761097
184	0x3d1b625d	0.037935603
185	0xbd85be0d	-0.0653039
186	0x3bc84c93	0.006112644
187	0xbdab59fc	-0.083667725
188	0x3ce32aec	0.027730428
189	0xbc571134	-0.01312666
190	0x3cd55e29	0.026045876
191	0x3d9b8627	0.07593947
192	0xba80a1e2	-0.000981387
193	0xbcd04a7d	-0.025426144
194	0x3d59d8d7	0.05318531
195	0x3da4eb04	0.08052638
196	0x3cced298	0.025246903
197	0x3cd8dea0	0.026473343
198	0xbbf981f4	-0.0076143686
199	0x3dab519f	0.08365177
200	0x3d8d8c91	0.069115765
201	0xbd0e547e	-0.034748547
202	0xbd235b48	-0.039881974
203	0xbd3bd2bc	-0.04585527
204	0x3d1bcaa7	0.03803506
205	0x3d5c4df0	0.053785264
206	0x3c54adef	0.012980922
207	0xbd0f298e	-0.03495174
208	0x3c8b18cf	0.016979603
209	0x3cf2a21c	0.029618315
210	0x3d87d029	0.066315
211	0xbcb60d75	-0.022223214
212	0xbda2abf0	-0.07942951
213	0x3d41814d	0.04724245
214	0xbd067e12	-0.032835074
215	0xbda00b17	-0.07814615
216	0x3dabbc0e	0.08385478
217	0xbd87faed	-0.06639657
218	0x3db80ba4	0.08986595
219	0xbb008a48	-0.0019613672
220	0x3d24b3ee	0.040210657
221	0xba3fe2fa	-0.0007319894
222	0x3d3782df	0.044802543
223	0x3a902507	0.0010997363
224	0x3d6fb3e7	0.058521178
225	0xbd56f05e	-0.052475326
226	0xbdae49a5	-0.0851014
227	0xbd830f33	-0.063993834
228	0xbd1d71c0	-0.03843856
229	0x3c584572	0.013200151
230	0x3d7eb0ad	0.06218021
231	0x3d9b41e3	0.07580926
232	0x3d81b123	0.06332614
233	0x3d999ac7	0.075002246
234	0xbcdbb665	-0.02682037
235	0xbc811bdf	-0.01576036
236	0x3dbcc4fe	0.09217261
237	0xbaf6a14c	-0.0018816381
238	0x3da0007d	0.07812593
239	0x3c8e2fce	0.01735678
240	0x3d43270f	0.04764467
241	0xbd73cd58	-0.059522003
242	0xbcd22ce6	-0.025656175
243	0x3d378473	0.044804048
244	0x3c9f4b36	0.019445043
245	0xbd245284	-0.040117756
246	0xbc20da98	-0.009817742
247	0xbcc95a9a	-0.024579335
248	0x3d5257d0	0.051353276
249	0x3daaba4f	0.08336317
250	0x3d93af9f	0.072112314
251	0x3da06656	0.07832019
252	0x3d05e500	0.032689095
253	0x3c4917ab	0.012273709
254	0x3d8f9a4c	0.07011852
255	0xbb40c8d5	-0.002941658

mlp.0.bias f4 [128]
0	0x3d9659c8	0.07341343
1	0xbd66dfd2	-0.056365795
2	0xbcd69183	-0.026192432
3	0x3cef340f	0.029199628
4	0x3d39a5c3	0.0453241
5	0x3d8db304	0.0691891
6	0x3d50260f	0.050817546
7	0x3d6264bd	0.055271853
8	0xbd670283	-0.05639888
9	0x3ade8c0a	0.0016978991
10	0xbd37712d	-0.044785667
11	0xbcc9023d	-0.0245372
12	0xbd656e1f	-0.056013223
13	0x3d2da483	0.04239322
14	0x3d048719	0.0323554
15	0xbd7e9bd3	-0.062160324
16	0x3cccfa87	0.025021804
17	0xbd4259f5	-0.04744907
18	0x3d510315	0.05102833
19	0xbd0c6095	-0.034271795
20	0xbd53954c	-0.051656052
21	0x3d5cb49b	0.053883176
22	0xbd4d0cde	-0.0500611
23	0xbcf58085	-0.02996851
24	0x3d36b41d	0.044605363
25	0xbd4d3134	-0.050095752
26	0xbcb992ce	-0.02265301
27	0x3dc64e1c	0.09682867
28	0x3bc9c560	0.006157562
29	0x3dd0baee	0.10191904
30	0x3cdb1ccb	0.026747128
31	0xbcdb83a2	-0.026796166
32	0xbc4d161b	-0.012517477
33	0xbc65d391	-0.014027492
34	0x3c83b22d	0.016076172
35	0x3dbbccc6	0.09169917
36	0xbd3e862a	-0.046514668
37	0x3d6be24a	0.057588853
38	0x3d6e2506	0.058140777
39	0x3d38ba58	0.045099586
40	0x3ab3b62f	0.0013710911
41	0xbb8ee522	-0.004360811
42	0x3c8a06bc	0.016848914
43	0xbd82e327	-0.06390982
44	0x3d81f731	0.06345976
45	0xbbc69df4	-0.00606131
46	0xbd091ff0	-0.033477724
47	0xbd913f7d	-0.070921876
48	0x3da17a9e	0.078847155
49	0x3d2a512d	0.04158132
50	0x3da79034	0.081818014
51	0xbd3b0c66	-0.04566612
52	0xbc313533	-0.010815906
53	0x3da9fa63	0.082997106
54	0x3dc26020	0.09490991
55	0x3c92fff3	0.017944312
56	0xbdae723c	-0.08517882
57	0xbd6b2669	-0.057409678
58	0xbd8159fc	-0.06315991
59	0x3d86854a	0.065683916
60	0xbd48dfda	-0.049041606
61	0xbd96a8dd	-0.07356427
62	0xbd9507b8	-0.07276863
63	0xbd505f46	-0.05087211
64	0xbbef0a02	-0.007294894
65	0x3d12abd0	0.035808384
66	0x3bf44cfd	0.007455467
67	0x3d81018b	0.062991224
68	0xbd5910c6	-0.052994512
69	0x3ba33347	0.004980478
70	0x3cac40b7	0.021026952
71	0x3d75cca3	0.06000961
72	0x3d73e1ba	0.05954144
73	0xbc944eac	-0.01810392
74	0xbd3f996d	-0.046777178
75	0x3daec611	0.08533872
76	0xbd758f97	-0.05995139
77	0x3cd49dad	0.025954092
78	0xbd01e501	-0.031712536
79	0x3d73c950	0.05951816
80	0x3d1e5fee	0.038665704
81	0xbd5c9b23	-0.053858887
82	0x3c9ba904	0.019001491
83	0xbd991ea9	-0.07476551
84	0x3cbb5291	0.02286652
85	0x3d36239e	0.04446756
86	0x3dca99ae	0.09892593
87	0x3d674597	0.05646285
88	0x3d801c8d	0.06255446
89	0x3c2d93d8	0.010594331
90	0xbc943276	-0.018090468
91	0xbd5b58d4	-0.05355151
92	0x3c996501	0.01872492
93	0x3c323248	0.010876246
94	0xbd48cc53	-0.049022984
95	0x3d3d89a1	0.04627383
96	0x3c6642b9	0.014053994
97	0xbd2ba15b	-0.041901927
98	0x3ccfe5a7	0.025378061
99	0x3c0e3883	0.008680466
100	0xbd442756	-0.047889076
101	0x3d365420	0.04451382
102	0xbd36d3d5	-0.044635613
103	0xbd0c0c0e	-0.034191184
104	0xbc70aee1	-0.014690132
105	0xbd2ca1ca	-0.04214648
106	0x3d802bed	0.06258378
107	0x3c86fb6e	0.016477313
108	0x3c94f5ed	0.018183673
109	0x3dbc7833	0.09202614
110	0x3ca87807	0.020565046
111	0x3d5be526	0.05368533
112	0xbd904de0	-0.070461035
113	0x3d2c0445	0.04199626
114	0x3d0ca3e6	0.034335993
115	0x3bc6fad7	0.006072383
116	0x3db7ab6c	0.08968243
117	0x3d743fce	0.05963116
118	0xbbaf35c5	-0.005346986
119	0xbca39473	-0.019968247
120	0xbda56a02	-0.0807686
121	0xbd853a37	-0.06505244
122	0xbd2f7072	-0.042831846
123	0x3d06fd62	0.03295649
124	0x3dd32a10	0.10310757
125	0xbd2c8452	-0.042118378
126	0x3d3b8083	0.045776855
127	0xbd817875	-0.063218035

mlp.2.weight f4 [64, 128]
0	0xbd70e9a8	-0.058816582
1	0x3d9d7c5f	0.076897375
2	0xbd760e06	-0.060071968
3	0x3c986c78	0.01860641
4	0xbcb3d40c	-0.021951698
5	0xbd58d6b3	-0.052939128
6	0x3d261e02	0.04055596
7	0xbd81b602	-0.06333543
8	0xbca671b8	-0.020317897
9	0xbd1bebd3	-0.038066696
10	0xbd7fa858	-0.062416404
11	0x3daa83c5	0.08325914
12	0xbd9d12b3	-0.07669582
13	0xbcc84bf0	-0.024450272
14	0xbcf20b6a	-0.029546458
15	0xbd843ba4	-0.06456688
16	0xbd0c5292	-0.034258433
17	0xbd469042	-0.04847742
18	0xbd344e98	-0.044020265
19	0xbd937a88	-0.07201105
20	0x3d96b861	0.07359386
21	0x3bf6ffa0	0.007537797
22	0x3d2d110a	0.042252578
23	0x3d6e72fe	0.058215134
24	0xbd8cb22a	-0.068699196
25	0x3c8bd8b0	0.017071098
26	0x3d9899f9	0.07451243
27	0xbd8b8d0e	-0.068140134
28	0x3bd16d00	0.0063911676
29	0xbd4c0206	-0.049806617
30	0xbda8d34f	-0.08243429
31	0xbd504174	-0.05084367
32	0x3cd680a0	0.02618438
33	0xbce88c00	-0.02838707
34	0x3d91fbbd	0.071280934
35	0x3cb4459c	0.022005849
36	0x3d4db972	0.050225683
37	0xbd05ebb5	-0.03269549
38	0xbd47a904	-0.04874517
39	0x3d5fe86e	0.05466502
40	0x3d186e46	0.03721454
41	0x3d8ef71d	0.06980727
42	0xbd87cdb9	-0.06631035
43	0xbc9bd788	-0.019023672
44	0xbd726518	-0.05917844
45	0xbd89933a	-0.06717534
46	0xbc18cbd0	-0.009325936
47	0x3d002d00	0.031292915
48	0x3c10c7f8	0.008836739
49	0xbc65c418	-0.014023803
50	0xbbb15630	-0.0054118857
51	0x3b03c7e0	0.0020108148
52	0xbd77a2eb	-0.060458105
53	0x3d95bdd7	0.073116
54	0xbdab619a	-0.083682254
55	0xbd5d6fef	-0.054061826
56	0xbda2a96a	-0.079424694
57	0x3da4a725	0.08039693
58	0xbd9fe13b	-0.07806631
59	0xbd54c165	-0.051942248
60	0x3d440fae	0.047866516
61	0x3d8125a3	0.06306007
62	0x3d17348a	0.03691534
63	0xbd94c0ed	-0.0726336
64	0xbd4263de	-0.047458522
65	0xbd1b5d82	-0.037930973
66	0xbd654171	-0.055970613
67	0x3d8450e7	0.064607434
68	0x3ae10d40	0.0017170087
69	0xbda4cd30	-0.08046949
70	0xbc6a3728	-0.014295377
71	0x3d8fd65b	0.07023307
72	0xbc504588	-0.01271189
73	0x3d58bf46	0.052916788
74	0xbd800118	-0.062502086
75	0xbdb4af91	-0.08822549
76	0xbdb385ff	-0.08765792
77	0x3d3cebc6	0.04612329
78	0xbd6e650f	-0.058201846
79	0xbb80ebf0	-0.003934376
80	0x3d7bf1be	0.06150984
81	0x3d7d4702	0.061835296
82	0xbd816ea6	-0.06319933
83	0x3d2df5a2	0.04247058
84	0xbc3035e8	-0.01075504
85	0x3d8272a1	0.0636952
86	0x3d9da345	0.07697157
87	0xbd2dd21e	-0.04243671
88	0x3da3aed3	0.079923294
89	0xbd678adc	-0.05652891
90	0xbca482c0	-0.020081878
91	0x3c99dedc	0.018783025
92	0x3c6df918	0.014524721
93	0xbdb1d8a2	-0.086838976
94	0xbbbf0990	-0.0058299974
95	0x38b9dc00	8.8624656e-05
96	0xbd26ee7f	-0.04075479
97	0x3ce828ac	0.028339706
98	0xbcd4a2ce	-0.025956538
99	0x3c2d2da8	0.010569967
100	0xbd39814d	-0.045289326
101	0x3d96da9b	0.073659144
102	0x3c67e5a0	0.014153868
103	0x3cfacde8	0.030615762
104	0xbcc3d788	-0.023906484
105	0xbda99fe4	-0.0828245
106	0xbd1eee81	-0.038801674
107	0x3cf8edac	0.030386768
108	0x3d987679	0.07444472
109	0x3d98f9bf	0.0746951
110	0xbba8bd40	-0.0051495135
111	0x3d04867a	0.03235481
112	0xbd2681b0	-0.040651023
113	0xbc4911c8	-0.012272306
114	0x3d7aafa2	0.061202653
115	0xbcc98c2c	-0.024602972
116	0xbd838c84	-0.064232856
117	0xbd43cd32	-0.04780311
118	0xbd7767f6	-0.06040188
119	0x3d971f25	0.07378987
120	0xbd8d0663	-0.06885984
121	0x3d4d040e	0.050052695
122	0xbbf76170	-0.0075494573
123	0x3d7a9b9a	0.06118355
124	0xbc792fd8	-0.015209161
125	0x3d5bdc5e	0.053676955
126	0xbd0feecb	-0.03513984
127	0xbd03cace	-0.03217583
128	0xbd3b485b	-0.0457233
129	0xbcf5481e	-0.029941615
130	0xbda84a7b	-0.08217331
131	0xbcb22118	-0.021744296
132	0xbd699348	-0.057025224
133	0xbcd64960	-0.026158035
134	0xbc6fa5cd	-0.014626932
135	0xbd5402df	-0.05176055
136	0xbd0cde8e	-0.034391932
137	0xbda73913	-0.08165183
138	0xbd83c4fe	-0.06434058
139	0x3d79ad59	0.060956333
140	0xbcdac172	-0.02670357
141	0x3d83bb95	0.06432263
142	0xbcf9d356	-0.03049628
143	0x3c0d8058	0.008636557
144	0x3d6f3a29	0.058405075
145	0x3ce924ec	0.028459989
146	0x3d0e5610	0.034750044
147	0xbd7a432c	-0.061099216
148	0xbcbae504	-0.022814281
149	0xbce2ab2e	-0.027669515
150	0x3d3233c6	0.043506406
151	0xbd592062	-0.0530094
152	0x3cac7072	0.021049712
153	0x3c60f346	0.013729876
154	0x3d016f18	0.031600088
155	0xbd15d180	-0.036576748
156	0xbd1a2087	-0.037628677
157	0xbd99c4eb	-0.07508262
158	0xbc039ea7	-0.008033431
159	0xbd531c18	-0.051540464
160	0x3cb49d74	0.022047736
161	0x3d8d6461	0.069039114
162	0xbda69249	-0.081333704
163	0x3c234d21	0.009967119
164	0xbc002988	-0.007822402
165	0x3d73fab7	0.059565272
166	0x3b69f2e4	0.0035697753
167	0xbd91c6be	-0.07117985
168	0x3d41fd16	0.047360502
169	0xbd9ddf00	-0.077085495
170	0x3bb02910	0.005375989
171	0xbd16cb01	-0.036814693
172	0xbb97bf9a	-0.004630995
173	0x3ca846d8	0.020541593
174	0x3d7a8612	0.061163016
175	0x3ca4fe14	0.020140685
176	0x3d5faf71	0.054610673
177	0x3d4b8b94	0.04969366
178	0x3da4d957	0.08049267
179	0x3d3a7d8a	0.04552988
180	0xbd97a7e7	-0.07405072
181	0x3d5eaf29	0.054366264
182	0xbd511799	-0.051047895
183	0x3d8ecc35	0.06972543
184	0xbd98d8f9	-0.07463259
185	0x3bf4eb40	0.007474333
186	0x3afe0440	0.0019379929
187	0x3d655b27	0.055995133
188	0xbd19e61f	-0.037572976
189	0x3d1d6c46	0.038433336
190	0xbd0c0c9a	-0.034191705
191	0xbd18f472	-0.037342496
192	0xbd91a258	-0.07111043
193	0xbd62200e	-0.05520635
194	0xbdb471a8	-0.08810741
195	0xbcbf8fa5	-0.023383925
196	0xbd0c6a8f	-0.03428131
197	0xbd53a211	-0.05166823
198	0x3c81df2e	0.01585349
199	0x3d001dfd	0.0312786
200	0xbcec0923	-0.02881295
201	0xbcdca094	-0.026932038
202	0x3d13447e	0.03595399
203	0xbd772536	-0.06033822
204	0x3c100fe0	0.008792847
205	0x3cc53d81	0.024077179
206	0xbd25294d	-0.04032259
207	0xbc482cbc	-0.012217697
208	0x3c1e22fa	0.009651894
209	0x3d27d39a	0.040973283
210	0x3b8f1dcb	0.0043675653
211	0x3dab11af	0.08352982
212	0xbd88c07e	-0.0667734
213	0x3d871e2e	0.06597553
214	0xbd2f37cd	-0.042777825
215	0xbc17b47d	-0.00925934
216	0xbd57e85b	-0.052711826
217	0x3d90ff80	0.07079983
218	0x3d15f8aa	0.036614098
219	0x3c487654	0.012235243
220	0x3da7ce29	0.08193619
221	0x3bbe48b0	0.005807005
222	0xbd21c31a	-0.039492704
223	0xbd8ad904	-0.06779674
224	0xbd5115bd	-0.051046122
225	0x3cca5f90	0.02470377
226	0xbd55a724	-0.05216135
227	0x3c87dc66	0.016584586
228	0xbcc1fe50	-0.023680836
229	0x3d93a732	0.07209624
230	0xbda710ef	-0.08157527
231	0xbcc0ce38	-0.023535833
232	0x3d5c5d28	0.05379978
233	0xbd921133	-0.07132187
234	0x3c7d5be8	0.015463807
235	0xbb7ba230	-0.0038396232
236	0x3b70cba0	0.0036742464
237	0xbda7a9a7	-0.081866555
238	0xbd391bd6	-0.045192562
239	0x3c2239e3	0.009901497
240	0xbd3db985	-0.046319503
241	0x3d99105c	0.074738234
242	0xbd24fe53	-0.040281605
243	0x3c528af2	0.01285051
244	0xbd509614	-0.050924376
245	0xbd9ae4ef	-0.07563197
246	0x3d2f0116	0.042725645
247	0xbcec713e	-0.028862592
248	0xbd93d5da	-0.07218523
249	0xbc2b8f48	-0.010471173
250	0x3bbf6010	0.005840309
251	0xbd453f89	-0.048156295
252	0x3d668e11	0.05628783
253	0xbc438bf8	-0.011935227
254	0x39b9a1aa	0.000354064
255	0x3d9803cb	0.074225985

mlp.2.bias f4 [64]
0	0xbd8a6f04	-0.06759456
1	0xbd16fa35	-0.03685971
2	0x3c5f9e64	0.013648603
3	0xbcb930f8	-0.022606358
4	0xbc47aad6	-0.012186727
5	0xbd6914f3	-0.056904744
6	0x3dbe05bc	0.092784375
7	0xbd8e1758	-0.06938046
8	0x3d1769fc	0.03696631
9	0xbd9769a8	-0.07393199
10	0xbd469b8c	-0.048488185
11	0xbbb45ee9	-0.0055044782
12	0x3c25113f	0.010074913
13	0xbd057b65	-0.03258838
14	0x3dc8addf	0.09798788
15	0x3d67f85a	0.05663333
16	0x3d35478f	0.044257697
17	0x3dc3d65b	0.095623694
18	0x3c7e0118	0.01550319
19	0x3ce9a57f	0.028521297
20	0x3d068096	0.032837473
21	0x3d6309f0	0.0554294
22	0x3d35ee92	0.04441697
23	0x3d1b8298	0.03796634
24	0xbdadf909	-0.08494765
25	0xbbbed226	-0.0058233915
26	0xba53f894	-0.0008086052
27	0xbc3ee78a	-0.011651883
28	0xbd863b84	-0.065543205
29	0xbd1584f0	-0.036503732
30	0x3ca355aa	0.019938309
31	0xbb5049e3	-0.0031782321
32	0xbdb09bcd	-0.08623467
33	0xbdac3440	-0.084084034
34	0xbd65ac8f	-0.056072768
35	0x3c73c6d5	0.014878948
36	0x3daf8d42	0.08571865
37	0x3c6f35eb	0.014600257
38	0xbda71d8c	-0.081599325
39	0x3da601b4	0.081057936
40	0xbd0264c6	-0.031834386
41	0xbbaf9ec3	-0.005359502
42	0x3d898e12	0.06716551
43	0x3d3cbeb4	0.046080306
44	0x3d88c771	0.066786654
45	0xbd2a6006	-0.04159548
46	0xbb31c3fb	-0.002712487
47	0xbd7c407e	-0.061584942
48	0xbd341132	-0.04396171
49	0xbd94167b	-0.0723085
50	0x3d8c67c1	0.06855727
51	0xbd3e7062	-0.046493895
52	0x3d8234b5	0.06357709
53	0xbd20f0d9	-0.03929219
54	0x3d480d4b	0.048840802
55	0x3d5b1e19	0.0534955
56	0x3c2c0ec7	0.01050157
57	0xbda6d407	-0.0814591
58	0xbd8cfd46	-0.068842456
59	0xbd803acd	-0.06261215
60	0xbd3638a7	-0.04448762
61	0x3d6dc94f	0.05805331
62	0x3b5bac9f	0.0033519638
63	0x3c915434	0.017740346

mlp.4.weight f4 [1, 64]
0	0xbd3c2bd0	-0.04594022
1	0xbc7b7155	-0.015346845
2	0xbde63e10	-0.11242306
3	0xbddc65c9	-0.107616015
4	0xbdc5a647	-0.096508555
5	0x3dce52cd	0.10074387
6	0x3e0e7e51	0.13915373
7	0xbdc5b418	-0.09653491
8	0x3e077e5a	0.13231793
9	0x3dcdeb8d	0.10054693
10	0x3c0db564	0.008649204
11	0x3d1a435c	0.037661895
12	0x3e0910fd	0.13385387
13	0xbd15e44e	-0.03659468
14	0x3df3d6f6	0.11906235
15	0xbdaceecc	-0.084439844
16	0x3d8d9c00	0.0691452
17	0x3e0da5ce	0.1383278
18	0xbc9241db	-0.017853668
19	0x3db7f005	0.08981327
20	0x3be01415	0.0068383315
21	0x3d3ff593	0.046865057
22	0xba04ab1c	-0.00050608977
23	0x3e10ca13	0.14139585
24	0xbdbf360c	-0.093364805
25	0xbdc77bdf	-0.097404234
26	0x3d1c2cd7	0.0381287
27	0xbd1bbf87	-0.03802445
28	0xbd7060ac	-0.058685943
29	0x3dc50dda	0.096217826
30	0xbcff2955	-0.031147638
31	0xbd9f6d0a	-0.077844694
32	0xbd9b3b6e	-0.07579695
33	0xbae52480	-0.0017482191
34	0xbda0db62	-0.07854344
35	0xbd2c0e95	-0.042006094
36	0x3da7defa	0.08196826
37	0xbd9b2905	-0.07576183
38	0xbdbb78a4	-0.0915387
39	0x3caacb65	0.02084894
40	0x3dae7ea9	0.08520252
41	0x3dda6cba	0.10665269
42	0x3da1bbe7	0.07897168
43	0x3d939779	0.072066255
44	0xbdbda8d0	-0.09260714
45	0x3d9eeb18	0.07759684
46	0xbcc104e0	-0.023561895
47	0x3cfe4370	0.031038016
48	0x3b57fe07	0.0032957809
49	0xbdf487ba	-0.1193995
50	0x3e0a91e4	0.13532215
51	0x3de1c37e	0.11023615
52	0x3e0a2c7a	0.13493529
53	0x3d9c0cd2	0.07619633
54	0x3cb701dc	0.022339754
55	0xbb94c41b	-0.004539979
56	0xbbc6b2e2	-0.006063805
57	0x3de4e35a	0.11176176
58	0xbdef22a1	-0.11676527
59	0xbc2675c5	-0.010159914
60	0x3df07887	0.11741739
61	0x3b398a03	0.002831102
62	0x3ce9c4d1	0.028536232
63	0x3dc07fac	0.093993515
