ai_matching/team_match_advanced.pt (torch, 109269 bytes, 5 tensors)

mlp.0.weight f4 [128, 142]
000000 f7 93 a7 bd c9 50 b2 3c 64 25 30 bd e7 44 6d 3d
       -0.08182519 0.021767037 -0.04300441 0.05792704
000010 c6 7e fd 3b 15 37 25 3d 7a e4 e1 bc e6 db f5 bc
       0.00773606 0.040335733 -0.027574766 -0.030012082
000020 50 92 44 bd d3 80 dd 3c 3d 6b aa bd 1a f6 38 bc
       -0.047991097 0.027038967 -0.08321235 -0.011289144
000030 ce 2d ab 3c e7 5a e2 3d 2b db 01 3d be 00 3e bd
       0.020895865 0.110524945 0.031703155 -0.046387427
000040 c6 b3 60 3b 75 14 4c bd 24 78 7c 3d 40 33 62 3d
       0.003428684 -0.049824197 0.061638013 0.055224657
000050 3a 4f c0 bd b0 5f 5d 3c e3 f4 42 bd 10 50 2e 3d
       -0.09390111 0.013511583 -0.047596823 0.042556822
000060 3b ab a4 3d 2f 72 5e 3d 45 ce 5b bd d6 82 4e 3c
       0.08040472 0.054308113 -0.05366351 0.012604436
000070 29 d1 74 3d 69 c1 9b 3d fb fb 2d 3c 6e 18 c3 3d
       0.059769783 0.076052494 0.010619159 0.09526144
000080 55 15 13 bd e7 86 07 3d d6 80 0f 3d 42 72 8a bd
       -0.035909016 0.033087637 0.035034977 -0.06760074
000090 9c b8 65 bd 89 71 26 bd be c9 28 3d 4e c1 45 3d
       -0.05608426 -0.04063562 0.04120802 0.048280053
0000a0 c8 80 da ba 13 b5 b9 bc 9d d1 96 3d 54 42 a5 bd
       -0.001667046 -0.02266935 0.07364199 -0.08069292
0000b0 25 a6 d8 3c ab 1b 61 bd 90 fa b1 bb a9 e9 35 bd
       0.026446411 -0.054958027 -0.0054314807 -0.04441229
0000c0 6b 7b 1a 3d 78 88 8f 3d 77 af 08 bd 25 64 4a bd
       0.037715357 0.07008451 -0.03337046 -0.04941191
0000d0 f2 11 9d bd a6 83 d3 3c c0 e8 6f 3d c7 67 20 bd
       -0.076694384 0.02581961 0.058571577 -0.03916147
0000e0 c2 30 a7 3c 8e 27 95 3d bb 0b c4 3d 32 95 d0 bb
       0.020408992 0.07282935 0.0957255 -0.0063654417
0000f0 17 b7 4a bd dd a1 a4 3d 83 6c 58 bd d1 a0 1f 3d
       -0.049491014 0.080386855 -0.05283786 0.038971726
000100 b0 15 87 3c 26 bb 3c bd ea 20 5f bd aa 44 e7 3d
       0.016489834 -0.046076916 -0.05447475 0.112923935
000110 36 00 30 bd 5a de 3e 3c bb db 02 bd 91 93 31 3d
       -0.04296895 0.011649692 -0.031947833 0.04335362
000120 d5 41 1f 3d 68 dc f8 bb f1 fa 69 bd 52 d3 12 3d
       0.03888114 -0.007594634 -0.057124082 0.035846062
000130 e1 fc 89 bd df 59 0a 3d e0 5b 7e bc ad ed 9c 3d
       -0.06737686 0.033777114 -0.015524834 0.076625206
000140 00 ac b3 bb 28 47 cc 3c ba 5e 07 3d 3f 4a 34 3d
       -0.0054831505 0.024936274 0.033049323 0.04401612
000150 de ce 0b 3d fa 9a 35 3c e1 e2 0c bd 9c 77 8d 3d
       0.03413283 0.011084313 -0.034396056 0.06907579
000160 5a 60 a5 3d 57 47 cb 3c 38 6e c6 3c 4f 2e 19 bd
       0.08075018 0.02481429 0.024222478 -0.03739768
000170 ee 55 b0 bc eb 5f 2f bc ea 91 05 3d c1 2c e2 3c
       -0.02152535 -0.010704021 0.032609858 0.027609231
000180 19 1b 94 3d c0 39 7d 3d b9 b3 95 3d d1 0c 51 bc
       0.07231731 0.061822653 0.0730967 -0.012759403
000190 7c 8f 34 3d 2d 82 38 3d c7 b8 90 bc 0a 99 35 bd
       0.04408215 0.04504602 -0.017666234 -0.044335403
0001a0 bb 4a c4 3a 71 ce 0f 3d 51 73 04 bc 10 d4 c6 3d
       0.0014975885 0.035108987 -0.008084134 0.097084165
0001b0 91 e0 32 bd d6 83 25 bc d2 a9 70 bd 95 6c 81 3c
       -0.043671194 -0.010102233 -0.058755703 0.015798846
0001c0 83 1a aa 3b 51 94 43 3d d5 8c 2e 3d 20 08 40 3d
       0.0051911487 0.047748867 0.042614777 0.04688275
0001d0 2e 5a ef bc 11 d1 9a 3d 7d 1f 12 3d cd d9 06 3d
       -0.029217806 0.075594075 0.03567456 0.032922555
0001e0 81 3d ab 3d 23 25 e7 3c ed 40 c8 3c 95 1f 8d bb
       0.0836134 0.02821595 0.024445022 -0.0043067434
0001f0 d3 1c 0a bc 11 ef e5 3c 8f 12 58 bd 9d 5e e7 3c
       -0.008429724 0.028068097 -0.052752074 0.028243357
000200 70 9d 6a bd 55 3c 6a bd 3f 16 64 bd 47 82 1e 3d
       -0.05727905 -0.057186443 -0.055685278 0.03869846
000210 f7 1f c1 3d d6 bf 88 3d a9 f1 5d bd 64 6e 80 3d
       0.09429925 0.06677215 -0.054185543 0.06271055
000220 d6 5b 91 bd 9d 65 27 3d c5 ae d1 3d b8 92 69 3d
       -0.070975944 0.04086839 0.10238413 0.057024688
000230 9c 67 33 3a 68 bf 40 3d 3c ac af bd 24 f5 dc 3d
       0.0006843747 0.04705754 -0.08577773 0.10788944
000240 8b c7 aa 3c 24 a5 6f 3d b0 29 1c 3d 6a 6d 8d 3d
       0.020847103 0.0585071 0.038125694 0.06905635
000250 76 25 d9 bb 86 b2 cc 3b 88 fa 2d bd 17 4c f9 bc
       -0.00662678 0.0062468676 -0.042475253 -0.03043179
000260 fa 1d 8b 3d d7 84 2a 3d ed bb 69 3d b9 2d 71 3d
       0.06792827 0.041630592 0.057063986 0.058881495
000270 55 2e a8 3d 8e 67 1c 3d bd 25 9e bc 0e a0 89 3c
       0.08211962 0.038184695 -0.019305104 0.016799953
000280 ec 72 89 3d 67 75 4b bd 21 03 dc 3c 2e 89 33 bd
       0.06711373 -0.04967251 0.02685696 -0.043831997
000290 4a 59 8d bd 23 b8 33 bd cb 0a 5d bc da 1d 74 3c
       -0.06901796 -0.04387678 -0.013491343 0.014899695
0002a0 78 50 90 b9 e8 9f 66 bd 95 42 9e 3b a0 1b 4a 3d
       -0.00027525774 -0.056304842 0.0048297145 0.04934275
0002b0 88 dc 73 3b 79 ec 41 bc 3a 24 25 bd 69 d0 b7 3d
       0.0037210304 -0.011836165 -0.04031775 0.08975298
0002c0 93 24 ab 3c f7 e8 5b bd d1 e0 98 3c f4 49 76 bc
       0.020891463 -0.05368897 0.018661888 -0.01503228
0002d0 ca 3e 9c 3d a6 82 9b 3d b4 9e 73 3d 4c 20 e5 3d
       0.076291636 0.075932786 0.059477523 0.11187801
0002e0 cb ac 8f 3d 2e 1c 8c 3d 84 6e 70 bd 8f 6c 15 3d
       0.070153795 0.06841312 -0.058699146 0.036480483
0002f0 3d 5c 63 bd 85 b5 d4 3d 69 6b 76 bb 4a f9 b6 bc
       -0.055507887 0.103861846 -0.0037600643 -0.022335667
000300 b1 f5 1d bd e8 c8 c2 3d e2 8b 95 3d 83 87 15 3d
       -0.038564388 0.09510976 0.07302071 0.036506187
000310 ff 73 6d bc 4c f1 18 bd fa b2 d5 bb 97 06 3b 3d
       -0.014492988 -0.037339494 -0.00652158 0.04566058
000320 6b 67 00 3d fa 37 ba 3d c8 b1 c4 3d 4e 5a a6 3d
       0.031348627 0.09092708 0.096042216 0.08122693
000330 6e 51 9d 3a b6 7e 5b bd 37 15 01 bd 2d ee 66 bd
       0.0012002417 -0.053587638 -0.031514373 -0.056379486
000340 06 bb 7f bb e4 34 3e 3d 55 cd 45 bd 63 57 81 3d
       -0.0039021387 0.04643716 -0.048291523 0.06315496
000350 30 66 c8 3d 2e d9 c3 3d e9 79 81 3d ff 07 16 bd
       0.09785116 0.09562908 0.06322081 -0.03662872
000360 4f df e2 bb 9e 50 42 bc 46 a0 5b bd 1a 41 01 3d
       -0.006923593 -0.011860041 -0.053619646 0.031556226
000370 b4 fa 13 3c 60 10 74 bb ee 17 6e 3d d9 82 53 bc
       0.00903194 -0.0037241206 0.05812829 -0.0129096145
000380 2a 96 88 3d 76 33 a4 bd fb d1 17 3d 73 27 b4 3d
       0.066692665 -0.08017628 0.037065487 0.08796587
000390 67 13 fc 3c d6 2d af 3d bd 5f 20 3d 5e 82 3a bc
       0.03077097 0.085536644 0.039153803 -0.011383621
0003a0 45 ca 58 bd ee 94 95 bd 89 52 62 bd a4 ee f5 bc
       -0.052927274 -0.07303797 -0.055254493 -0.03002102
0003b0 c5 8f be bd 96 e4 47 3c 1a d2 ca bc 35 ad 46 3d
       -0.093047656 0.012200495 -0.024758387 0.048505027
0003c0 fc 84 da bc 2f 6d ef bc a5 43 3e 3d 99 00 67 3d
       -0.02667474 -0.029226867 0.04645123 0.056397054
0003d0 49 89 f2 bc 5f 9c f4 bc 4c 17 a0 3d 8a d7 52 bd
       -0.029606478 -0.02985972 0.078169435 -0.051475085
0003e0 a8 dd 5c 3c 9e 9c 9d 3d 66 22 67 3b 76 31 24 3d
       0.013480581 0.07695888 0.0035268306 0.040086232
0003f0 2a c2 98 bc e2 0a 19 3a 7c 34 00 bd d3 39 97 bc
       -0.018647272 0.00058381085 -0.031300053 -0.01846019

mlp.0.bias f4 [128]
000000 16 b8 0d 3c d8 5e c0 3d 47 01 62 3a fe c9 6d 3a
       0.008649847 0.0939309 0.0008621406 0.00090709317
000010 5a 48 42 3d 1c 91 b0 bd 72 ee 8f bc 64 b4 d1 3c
       0.04743228 -0.086214274 -0.017569754 0.025598712
000020 2a 33 2f 3d 76 95 72 bd 70 b6 03 3d 00 9e 84 3d
       0.042773403 -0.05922457 0.032156408 0.064754486
000030 91 68 0f bd fd 50 bc bd 46 6f 99 bd 38 4b 62 bd
       -0.03501183 -0.09195135 -0.07491927 -0.055247515
000040 88 81 34 3d d6 fa 6b 3d 75 5a 97 3d cb 30 24 bc
       0.044068843 0.057612263 0.073903 -0.010021399
000050 1c 94 9f 3d 4b d0 21 bd e9 80 13 3d 5b b8 99 bc
       0.077919215 -0.039505284 0.03601161 -0.018764665
000060 23 18 a3 bd f6 4c 8d bc 14 44 92 3d 6c 6a 13 3d
       -0.07963588 -0.017248612 0.07141891 0.035990164
000070 3c 74 18 3c b4 23 76 3d d3 3b 61 3d 7c fb 5d bc
       0.009305056 0.060092643 0.054988693 -0.013548728
000080 72 fc 1c bd 47 64 17 3d c3 ad 70 3d 42 46 20 bd
       -0.038326688 0.036960866 0.058759462 -0.039129503
000090 df 6d 00 bc 70 f0 19 bc 5c a1 a2 3d 44 07 a8 3d
       -0.007838695 -0.009395704 0.07940933 0.08204511
0000a0 20 6d 0d 3d 13 8f 68 3d 0b 47 0a 3d 05 5e 31 bd
       0.034527898 0.05677707 0.033759158 -0.043302555
0000b0 45 32 61 3d 00 37 78 bc 62 d3 15 3c c9 65 91 3d
       0.05497958 -0.015149832 0.009144636 0.07099492
0000c0 5e 23 18 3d bd 6b 91 3c d5 92 cc 3d 52 2b 78 bd
       0.037143104 0.017751569 0.099889435 -0.06058819
0000d0 b8 e3 20 bd 61 40 d2 3b 2b 65 ad 3d 44 fe 89 bd
       -0.03927967 0.006416366 0.08466562 -0.067379504
0000e0 76 f7 79 3d 2c c6 d6 3d b2 c0 5a 3d 2b 60 70 3d
       0.061027013 0.10487017 0.053406425 0.058685463
0000f0 d8 6d 1a bd 18 fb a0 3d 46 30 29 bd 90 db 5e 3d
       -0.03770241 0.07860392 -0.041305803 0.05440861
000100 95 f3 9f 3d 08 be 36 bd 30 02 9d bd 13 be 1d 3d
       0.078101315 -0.04461482 -0.07666433 0.038511347
000110 92 eb 8a bc b6 78 07 3d 16 ff 72 3d 52 fd 40 3d
       -0.016958032 0.033074103 0.0593253 0.047116585
000120 e8 9a 36 3d 0a af 25 3d 02 26 1f bd 50 19 8a bd
       0.044581324 0.040450133 -0.038854606 -0.06743109
000130 85 15 7f 3c 0d 27 5f 3d 93 27 39 bd bc 32 ba 3d
       0.0155690955 0.0544806 -0.045203757 0.09091708
000140 61 62 95 bd 09 55 57 3d ad 45 5a bd e4 4d 7e 3d
       -0.07294155 0.05257133 -0.053289104 0.062086
000150 9b 19 15 3d 7c 79 8a 3d 31 68 b4 3d dd 87 e8 ba
       0.036401372 0.067614526 0.088089354 -0.0017740686
000160 bc e9 05 bc a0 77 54 bd fc 00 7c bd 09 1a 2b bd
       -0.008173402 -0.051871896 -0.061524376 -0.041772876
000170 63 51 b7 3c cf 4b 94 3d 42 f8 a3 bc f6 c5 84 3c
       0.022377675 0.07241022 -0.02001584 0.016207676
000180 5d 4c 8a 3d d1 1d c2 bc 64 a5 40 bd 74 18 0e 3d
       0.067528464 -0.023695858 -0.04703273 0.03469129
000190 4d 49 84 3d 1a 1f 3d bd 90 f1 92 3d a8 e0 9d 3d
       0.064592935 -0.04617224 0.07174981 0.077088654
0001a0 e0 cb 16 bd e7 82 86 bd 97 2e 82 3d b0 1a a7 3d
       -0.036815524 -0.065679364 0.063565426 0.08159387
0001b0 c4 8f 44 3c b0 b1 8e bc f4 ab 11 3d ad 0c 98 3b
       0.011997167 -0.017418712 0.035564378 0.004640183
0001c0 3d 60 5d bc f9 5f bf bc 9e 0f 8d 3d b2 90 8e bd
       -0.0135117145 -0.023361193 0.06887744 -0.06961192
0001d0 15 86 86 bc 2e 31 94 bd ae 56 ae bc f8 d3 2b 3c
       -0.016421357 -0.07235943 -0.021281566 0.010487549
0001e0 12 10 4e 3d a9 81 78 bd df a9 d9 bc 6d e6 ef 3b
       0.050308295 -0.06067053 -0.026570259 0.00732117
0001f0 63 c3 d8 bc 21 f8 e0 bc 4d 73 76 3d 74 5a a5 bc
       -0.026460355 -0.027462067 0.060168553 -0.020184733

mlp.2.weight f4 [64, 128]
000000 ed 11 93 3d df 55 38 3c 7c b2 2f 3d 13 ad 38 3d
       0.071811534 0.011250942 0.042894825 0.04508693
000010 74 c3 d5 3d 2a 08 62 3d 78 82 7c bd 6a 5f 41 bd
       0.1043767 0.055183567 -0.061647862 -0.047210135
000020 2a f6 d0 3d 21 99 d6 bc 35 40 39 3d a7 fe 4e bc
       0.10203202 -0.026196064 0.04522725 -0.012633956
000030 3c 90 b1 bc a9 03 6f bd dc c5 8c 3d 2d 4a 7b bd
       -0.021675222 -0.0583531 0.06873676 -0.061350036
000040 fa 40 42 3d 62 3e 2e bd f5 0b 87 bd 2e 41 98 3d
       0.047425248 -0.04253996 -0.065940775 0.07434307
000050 c3 50 8c bb b3 a2 19 bc 3a 84 a7 3d 5f 61 24 3d
       -0.0042820885 -0.009377169 0.08179517 0.040131923
000060 25 ed 9b bd f6 53 4e 3b 93 bf 7a 3d dc 2d 91 3c
       -0.07613591 0.003148315 0.061217856 0.017722063
000070 4e de 27 bd f7 fc 11 3d 12 8c e8 3d 7f 97 93 3c
       -0.04098349 0.035641637 0.11354841 0.018016575
000080 d3 a3 8d bd c4 43 9b 3d a3 96 57 bd b2 2c 54 3c
       -0.069160126 0.07581285 -0.052633893 0.012950109
000090 cf f9 e2 3c 82 7b 8f bd 12 fa cd 3d 27 97 4e 3d
       0.027707009 -0.07005979 0.10057463 0.05043712
0000a0 b0 ce b4 bd c6 09 b2 3d c0 b2 8a bd 78 2b 94 3c
       -0.08828485 0.086932704 -0.06772375 0.018087134
0000b0 83 74 57 3c db 4e b4 bc 42 24 39 3d 28 b7 9c bb
       0.013150337 -0.022010257 0.045200594 -0.004782576
0000c0 77 dd 41 3d b8 5a 94 3d 35 3f 12 bd de 0e a8 3d
       0.047330346 0.07243866 -0.03570481 0.08205961
0000d0 6d d5 16 bd 25 10 f4 3c 42 70 37 bb 95 fb 45 3d
       -0.036824632 0.029792855 -0.0027990495 0.04833563
0000e0 93 fd 91 bd d8 f5 c6 3d 6a 57 4a 3d 91 e0 67 bd
       -0.071284436 0.0971486 0.04939977 -0.056610648
0000f0 49 3b d5 3d 13 7a 10 bb 4d 22 1f 3c 5a f5 e3 3c
       0.10411698 -0.0022045418 0.009712768 0.027826954
000100 f0 98 f4 bc 84 d9 62 3d 75 b2 98 3c 6f 81 b2 3c
       -0.029858083 0.05538322 0.018639782 0.021790234
000110 23 fb e7 3d 70 ab a4 3d 45 98 b9 3d 94 75 16 3d
       0.113271974 0.080405116 0.09062246 0.036733225
000120 b8 e8 1d bc c9 1a 15 bd 29 aa aa 3d 5c d1 bb 3c
       -0.009638004 -0.036402497 0.08333237 0.022926979
000130 b5 a2 5c 3c 30 0e ab 3d 99 fa 85 3d b6 4b a5 3d
       0.013466527 0.083523154 0.06541938 0.08071081
000140 1b 4e af 3c ed 02 de bc 25 40 98 3c 23 79 f9 3c
       0.021399548 -0.027101004 0.018585274 0.03045327
000150 13 03 b4 3d f0 cd 9f bc 3d 6e 9b 3c 01 67 28 3b
       0.08789649 -0.019507378 0.018973464 0.002569616
000160 78 5c 53 bd db ed 2e 3d fd 6a 92 bd f6 4c d1 3d
       -0.051601857 0.042707305 -0.07149313 0.10219757
000170 44 a3 37 3d 6d 64 7a bd 2c b4 24 3c a5 71 88 bd
       0.044833437 -0.06113093 0.010052722 -0.06662301
000180 dd 0e 9d 3d 22 f9 74 bd 8e 88 5f 3d 74 b1 13 bd
       0.076688506 -0.059807904 0.054573588 -0.036057904
000190 e6 09 0a bd 20 d3 b0 3b 7b e8 cd bc 2b 30 5f 3c
       -0.033700846 0.005396262 -0.02513527 0.013622324
0001a0 ae e8 c7 3d 01 e4 8b 3c 18 71 8a 3d 53 1b c0 3c
       0.09761177 0.017076494 0.06759852 0.02345053
0001b0 f5 ac 41 bc 1c e1 72 bd 94 1d 48 bc 5e c1 02 bc
       -0.011821021 -0.059296712 -0.012214083 -0.007980673
0001c0 90 10 7d 3d 74 05 4e bd 53 ce ad 3d ea 26 49 3d
       0.061783373 -0.05029817 0.08486619 0.049109377
0001d0 aa b4 39 3c 25 5f 48 3d c7 c3 fc bc fc 26 6f bd
       0.011334578 0.048918862 -0.030855073 -0.058386788
0001e0 18 ca 79 bd d3 b4 ae bd e9 53 e8 3d 71 06 02 3d
       -0.060983747 -0.08530583 0.113441296 0.031744424
0001f0 1f 47 8c 3c d4 b6 16 bd 55 e1 ae 3d 44 2d 9c 3c
       0.017123757 -0.036795452 0.085390724 0.019064553
000200 4c 48 c2 3d 23 63 bf 3b da e1 b5 3c 50 85 d3 bc
       0.09486446 0.0058406754 0.022202421 -0.025820404
000210 8b 09 b1 3d 94 ca 3a bd 1a 88 af bc 8e ad a7 bc
       0.08644398 -0.04560335 -0.021427203 -0.0204685
000220 ea f4 ef 3c 54 87 2e 3d df 26 0d bd 94 1b af 3d
       0.029291589 0.042609528 -0.0344609 0.08550182
000230 8f 6a 02 bd 35 02 41 bc e9 00 08 bd ff f8 3f 3d
       -0.031839903 -0.011780311 -0.033203993 0.04686832
000240 17 37 d8 3d 22 41 2c bd d9 60 cd 3b c9 28 2f bd
       0.105573826 -0.042054303 0.0062676487 -0.042763505
000250 a3 62 c9 3d ce fc 80 3d f3 33 e1 3d 26 36 74 3d
       0.098332666 0.06298219 0.10996237 0.059621952
000260 14 30 f9 3c 5a 20 95 3b b4 19 c1 3c eb a0 84 3c
       0.030418433 0.0045509757 0.023571827 0.016190013
000270 f2 f6 bb 3d 0a 6f 14 3c b0 f0 1b 3d f6 e7 05 3c
       0.091779605 0.009059677 0.038071334 0.00817298
000280 17 0f 7e bd 9b b8 d1 3d a2 14 cc bc e3 e7 70 bd
       -0.06202611 0.10240289 -0.024912182 -0.058814894
000290 83 ef 1c bb 25 9f a7 3d 6c 42 dc 3d 57 3a 2b 3d
       -0.002394647 0.08184651 0.107548565 0.041803684
0002a0 a7 48 35 3d d2 51 da 3d b4 0e 71 bc 1c dc 8e 3d
       0.04425874 0.10660137 -0.014712978 0.06975576
0002b0 f6 1e b7 3d 30 f3 9a 3b f5 8c a9 bc df 92 a7 bc
       0.08941452 0.0047286972 -0.020697096 -0.020455776
0002c0 ac 56 46 3c 88 9a b5 3d bb 08 09 3d 22 cd c2 bc
       0.012105625 0.08867365 0.03345559 -0.023779456
0002d0 f1 aa a9 bc e4 b2 65 bd f7 c2 e3 3a c7 63 b8 bc
       -0.020711394 -0.056078807 0.001737683 -0.022508515
0002e0 09 33 14 3d 7a 49 a7 3c 25 4b d5 3c 43 38 c5 3d
       0.036181483 0.020420779 0.026036808 0.09629872
0002f0 f7 47 30 bd ed c0 82 3d c6 e7 bd 3d c2 39 4f 3d
       -0.04303738 0.06384454 0.09272723 0.05059219
000300 7d f1 ca 3d 0c 30 3f bc be ce 5a bd f4 ec 91 3d
       0.099093415 -0.01166917 -0.05341982 0.07125273
000310 05 b9 37 bd 05 79 74 3d 3e a2 b4 3d 00 87 28 bc
       -0.044854183 0.059685726 0.08820008 -0.010286093
000320 69 ca 70 bd 37 44 84 3d 79 fc 9f 3d 78 0f c1 3d
       -0.058786783 0.064583234 0.07811827 0.094267786
000330 62 5b ec 3c c1 e9 07 bd 23 af 82 bb 34 16 cf 3d
       0.028852168 -0.03318191 -0.003988163 0.10111657
000340 d2 26 69 bd f0 62 41 bd e0 3e 09 bc 93 3a 62 3d
       -0.056921788 -0.047213495 -0.008376807 0.055231642
000350 ac 9c 00 bd d6 dc 4f 3d 53 6b 89 3b 96 79 3b 3d
       -0.031399414 0.050747715 0.0041937022 0.04577025
000360 c2 cb 49 bd e7 5a 87 bd 95 72 94 3d 1f e7 94 bc
       -0.049266584 -0.06609135 0.07248417 -0.018176613
000370 53 ce 0e 3d 03 d0 4b bd cf 32 92 3c 7d 96 ab 3d
       0.034864735 -0.049758922 0.017846493 0.08378313
000380 62 10 74 bd 36 7e 23 bd 3f 21 eb bc db 11 32 bc
       -0.059585936 -0.039915286 -0.028702376 -0.010868515
000390 5c 16 3b 3d 88 4b 41 3a 7a dc b0 3d 3e 3c 70 bc
       0.04567562 0.0007373621 0.086358026 -0.0146628
0003a0 15 cc d0 3d cf a2 cb 3d 77 90 42 bd 54 1f a5 3b
       0.101951756 0.09943163 -0.047501054 0.005039135
0003b0 a6 c4 6e 3d 3c 0a 16 3d e0 2d 78 3d ce ec c7 3b
       0.058293007 0.036630854 0.060590625 0.0061012274
0003c0 d2 aa c3 3d 9c dd 9c 3c c2 b8 c9 ba 90 97 73 bc
       0.09554066 0.01914864 -0.0015390145 -0.014867678
0003d0 0d de 50 3d b6 31 8b 3d 89 52 b4 3d cf 5f 64 3c
       0.050993014 0.06796591 0.08804805 0.013938858
0003e0 0a 93 c2 3d 42 e8 31 bd 58 a7 b3 bc 01 d9 63 3d
       0.09500702 -0.04343439 -0.021930382 0.055626873
0003f0 ba e8 8c 3d 86 c8 91 3d f1 1f 2e bd 41 1c 82 3d
       0.068803266 0.07118325 -0.04251093 0.06353045

mlp.2.bias f4 [64]
000000 c7 3f 3d bb c4 9e 91 3d 76 ad 9e 3c c0 6f 89 3d
       -0.0028877126 0.0711036 0.019369822 0.06710768
000010 5e 8e 15 3d 38 dc 84 bd 3b b3 dd 3b 6b 22 b3 3c
       0.036512725 -0.06487316 0.0067657507 0.021866998
000020 04 04 bc bd ce c4 86 3d 40 95 d8 ba e7 17 06 bd
       -0.091804534 0.06580506 -0.0016523972 -0.03273764
000030 a8 d8 70 bc ba 90 f2 bc 8c b2 d6 3d 7e f0 5b 3d
       -0.014700092 -0.029610027 0.10483274 0.053696148
000040 64 0b 00 3c 15 1d 24 bd 93 a5 a5 3d 48 71 71 bd
       0.007815216 -0.040066797 0.080882214 -0.058945924
000050 db ff 6f 3d 74 99 b6 bd 4b 21 b7 3d a6 87 d0 3d
       0.058593612 -0.089159876 0.08941897 0.10182123
000060 d8 fc c5 3d c2 b3 74 bd e3 da 68 3d f3 79 b9 bd
       0.09667367 -0.059741743 0.05684937 -0.09056463
000070 a2 27 17 bc c7 47 1b 3d 51 f9 21 bd d8 c0 9c 3c
       -0.009225758 0.03791025 -0.039544407 0.019134924
000080 01 90 81 3d 77 ee 62 3d b9 f2 15 bd 73 06 45 bd
       0.06326295 0.0554032 -0.03660843 -0.048101854
000090 bc 5f 64 3b 8a 80 8f 3b 89 53 e9 3c 44 d4 68 3d
       0.0034847101 0.0043793367 0.028482215 0.056843057
0000a0 46 a9 74 bd d2 d8 31 3d 1c a4 36 bd 9c 27 77 3d
       -0.059731744 0.043419667 -0.0445901 0.06034051
0000b0 a4 6d 0f bd f5 e5 14 bc 74 cc 9b bd f5 78 64 bd
       -0.03501667 -0.009088029 -0.07607356 -0.055779416
0000c0 71 56 8f 3d 9e d1 a2 bc 00 dc 77 3b fa 9b 98 3d
       0.06998909 -0.019875344 0.003782034 0.07451625
0000d0 ac 1d 21 bd f8 fa ac bd 64 d7 9c bd 3d b1 b9 bc
       -0.039334938 -0.08446306 -0.0765827 -0.022667522
0000e0 cf e5 8f bd eb 32 97 bd 72 7d b3 bc 8d 4b a7 bc
       -0.070262544 -0.07382759 -0.021910403 -0.020421768
0000f0 4e af 1a bd 4b ec 98 3b 2b cb 63 3c fa 24 6c bd
       -0.03776484 0.00466684 0.0139034195 -0.05765245

mlp.4.weight f4 [1, 64]
000000 e7 0f ac 3d fd c2 08 3e be ef 99 3d a1 fd 94 bd
       0.08401471 0.13355632 0.0751643 -0.072749384
000010 5b 65 aa bd 21 fa b7 bd cc e1 d0 bd fe 9f 94 bd
       -0.08320113 -0.08983255 -0.10199317 -0.072570786
000020 88 1e bc bc 71 53 b6 3d 64 8c f7 bc 3a ab a1 3d
       -0.022963777 0.08902634 -0.03021831 0.07893987
000030 38 43 5f 3d 74 da fb bd 72 ff 01 3e b9 b3 a5 bb
       0.054507464 -0.12297526 0.12695101 -0.005056825
000040 6d 0b a0 3d 68 ba 27 bc 68 6b da 3d ac 20 eb bd
       0.07814679 -0.010237314 0.10665017 -0.11480841
000050 e4 c6 f0 3d f1 11 91 bc f6 35 e0 3d fc dd 0d 3e
       0.117566854 -0.01770875 0.10947792 0.13854212
000060 1d ee 0d 3d 10 20 16 3c 2f 3a 8f 3d 21 ed e4 bd
       0.03465091 0.009162918 0.069935195 -0.11178041
000070 a5 a8 a3 3d 1f 5e 01 be 7f d7 2e bd 79 89 dc 3d
       0.07991151 -0.1263356 -0.04268598 0.10768408
000080 24 14 cd bd 92 85 ea 3d bc 90 80 bc 75 11 96 bd
       -0.10013607 0.11451258 -0.015694015 -0.073275484
000090 a3 6b 13 3e 72 1b 70 bd b0 10 89 3d d5 ac b6 bd
       0.14396529 -0.058619924 0.06692636 -0.08919684
0000a0 1f 32 a0 bc 3f 71 b2 bc d6 7a e5 39 1e 32 b7 3c
       -0.01955515 -0.021782516 0.00043769804 0.022362765
0000b0 0f 5a 86 bd f9 82 44 bd 4e f4 93 3d 50 89 22 3d
       -0.06560146 -0.047976468 0.07224332 0.039681733
0000c0 76 7b 60 3d e9 25 40 bd bd 60 ca 3d eb 44 f6 3c
       0.05480524 -0.046911154 0.098817326 0.03006216
0000d0 5d fb 07 bd 00 21 88 3d 76 c8 b0 bd 86 64 a4 3c
       -0.033198703 0.06646919 -0.08631985 0.020067465
0000e0 1a 84 c4 3d 16 5f c4 bd 0c e0 63 bd 3b 2f dc bd
       0.09595509 -0.09588449 -0.05563359 -0.10751196
0000f0 b8 ca 48 bd 4b a2 10 3e b4 c5 d7 bd 01 8b d6 bd
       -0.049021453 0.1412441 -0.10535756 -0.10475732
